result/2000_finish/model.npz (npz, 12066 bytes, 6 tensors)

l2/W f4 [2, 50]
-0.47334367 -0.46693566 -0.17323585 0.93005276 0.1328177 0.14156051 0.3775459 -0.27671883
-0.47318092 -0.4172419 0.4565767 0.13989705 0.103462785 0.6034591 -0.91285104 0.66259193
0.30544883 -0.33277622 -0.5555766 -0.2848693 -0.6016967 0.14238489 0.5558629 -0.22525665
-0.32133433 -0.704895 0.22045816 0.21770856 0.27368966 0.61071897 0.5908206 -0.27955425
-0.796204 0.41221422 -0.65383506 -0.36133942 0.42873606 -0.31320757 -0.69706637 -0.82523674
0.21184427 -0.44539672 0.4529351 0.5991752 -0.27068383 0.48749742 -0.44997308 0.37336946
0.47189596 0.85454273 -0.6401776 -1.2341931 0.16425478 0.5119716 0.30077106 -0.09410584
0.280654 -0.3918955 -0.7024637 -0.47867206 0.40260696 0.28529114 0.0011822176 0.76801175
-0.7094415 0.5790128 0.037996706 -0.6163269 -0.07704293 -0.5173993 -0.1456488 0.37582326
0.13182601 -0.44030437 -0.6761955 -0.64007133 0.73114914 0.11319399 0.64178026 0.8843736
0.30973816 -0.8500335 -0.43023536 0.38266927 -0.22368652 -0.03424517 0.47978175 -0.30571172
-0.27326903 -0.31615296 0.53933924 -0.14152007 0.512586 0.31480807 -0.7061731 0.54741997
-0.44893974 0.7470273 0.4538467 0.45238507
00000000: 1a5a f2be 3112 efbe bd64 31be f017 6e3f
00000010: 5d01 083e 3df5 103e b24d c13e 17ae 8dbe
00000020: c544 f2be bba0 d5be 6cc4 e93e 2c41 0f3e
00000030: 4ce4 d33d 4c7c 1a3f 9bb0 69bf a09f 293f
00000040: ca63 9c3e a561 aabe 453a 0ebf 64da 91be
00000050: cc08 1abf 58cd 113e 084d 0e3f aea9 66be
00000060: ef85 a4be 0074 34bf c9bf 613e feee 5e3e
00000070: 0d21 8c3e 1458 1c3f 0540 173f bc21 8fbe
00000080: 06d4 4bbf be0d d33e bc61 27bf 7b01 b9be
00000090: 4b83 db3e be5c a0be f172 32bf b742 53bf
000000a0: b4ed 583e 0a0b e4be 1ce7 e73e 8c63 193f
000000b0: 1297 8abe 4399 f93e df62 e6be 482a bf3e
000000c0: 599c f13e 50c3 5a3f aee2 23bf 0afa 9dbf
000000d0: 6832 283e 9210 033f aafe 993e 90ba c0bd
000000e0: e2b1 8f3e 87a6 c8be a9d4 33bf 8114 f5be
000000f0: 8022 ce3e ae11 923e a4f4 9a3a 6b9c 443f
00000100: f59d 35bf 2f3a 143f 6fa2 1b3d 9ac7 1dbf
00000110: afc8 9dbd 4874 04bf f624 15be e86b c03e
00000120: 66fd 063e 936f e1be 261b 2dbf b7db 23bf
00000130: 972c 3b3f 40d2 e73d b64b 243f 4f66 623f
00000140: 0096 9e3e cc9b 59bf cf47 dcbe 3aed c33e
00000150: 140e 65be aa44 0cbd f4a5 f53e 3f86 9cbe
00000160: ebe9 8bbe cdde a1be 2312 0a3f a3ea 10be
00000170: d638 033f 862e a13e c3c7 34bf b723 0c3f
00000180: 6edb e5be 2e3d 3f3f 985e e83e 049f e73e

l2/b f4 [2]
0.33932474 0.3123498
00000000: f9bb ad3e 50ec 9f3e

l1/W f4 [50, 50]
0.46937984 0.09907096 -0.035616554 -0.35209808 0.17808722 -0.3410999 -0.017147413 -0.10377098
-0.18054448 -0.21535288 0.020393329 0.016351415 0.16114166 -0.2986515 -0.004208888 0.15350533
0.23654906 -0.1693579 -0.12352962 -0.015178273 -0.07156368 0.06455737 -0.12999675 -0.03792411
0.033345364 0.21724357 0.017455023 0.06993947 0.27366436 0.15278903 0.010725498 -0.09699587
0.22315843 0.42357484 0.04354424 0.63605404 0.42968377 0.17684178 0.38776594 0.112785906
-0.10869516 -0.38036588 -0.3820041 0.1124609 0.08800877 0.33249316 -0.17507291 -0.2111837
-0.3683344 0.0048762965 0.38156345 0.14381073 0.2628391 -0.6848729 -0.13006377 -0.27583802
0.3553709 -0.01109299 0.1452283 -0.45675266 -0.14124294 0.26478553 -0.08249477 0.017514301
0.090118036 0.31196296 -0.0009595534 0.16177127 -0.23322277 0.12757702 -0.18315063 -0.11503986
0.0040001734 -0.22887741 -0.040604893 0.6166546 0.1121435 0.20070593 0.32116905 0.07868463
0.45076525 0.24002439 -0.27206382 0.6035114 0.07760684 0.6719159 0.4225046 0.111826204
0.32868698 0.6167206 0.07478448 -0.43627107 -0.34772223 0.37930796 -0.085148916 0.3087681
-0.03010704 -0.03818993 -0.31329602 0.06419545 0.0857858 0.0398432 0.20205392 0.02986849
-0.13165711 0.09968889 -0.03355229 -0.19299589 -0.18053186 0.11383755 0.064349964 -0.13690259
-0.10307608 0.035529625 -0.10087614 -0.082316644 0.045183484 -0.1798763 -0.030420363 -0.024504825
0.06347363 -0.19341402 0.06408942 -0.1653957 0.060136065 0.2170795 -0.051356003 -0.05139448
0.00854414 -0.07299949 -0.055411857 0.19017811 -0.009088092 -0.055242635 -0.20904152 -0.035900503
0.15938407 -0.083277926 -0.004247045 -0.092173874 -0.3953073 -0.08948052 -0.07466659 0.2537608
0.060805675 -0.15105346 -0.017502075 -0.06282365 0.11975998 0.045004383 -0.10126859 -0.099228516
-0.06886667 0.13573694 -0.14355148 0.005184148 0.35243806 -0.37634048 -0.08927903 -0.3234311
0.06944131 -0.17114452 0.23842998 0.07482088 -0.14655836 0.047578577 0.0019376155 0.24434084
0.072054155 -0.14006333 -0.48257402 0.41333815 -0.03639499 0.14616016 -0.30094564 -0.019727657
-0.3569819 0.14840454 -0.23984553 -0.15953813 -0.16025105 -0.6649118 0.22335643 0.091183715
0.57428336 0.042621624 0.09505249 -0.36832887 -0.2682761 -0.053818207 0.053011566 0.2172232
-0.001535814 -0.2226512 -0.66440314 -0.26398143 0.43484837 -0.3720125 0.09428823 0.33244982
-0.025914272 -0.19116916 -0.044866934 -0.061419997 0.0865435 0.22188984 -0.124149755 -0.041258875
-0.23899442 0.050246436 0.06299878 -0.16914585 -0.2611183 -0.1380738 0.07828001 0.05490224
0.24252516 -0.05677727 -0.11607452 -0.087269396 0.09113095 0.2318567 -0.044074174 -0.1828292
0.13500631 -0.5066153 -0.12723655 0.0032288046 -0.14069541 0.1381963 -0.11761967 0.028246036
-0.023711585 -0.22057413 0.14015362 -0.2760494 -0.46599448 -0.028915195 -0.1261945 -0.5325697
0.052521486 0.37450883 0.059214883 -0.22353458 -0.0800896 -0.13003817 -0.18653263 0.19421868
0.3594514 -0.09930838 0.29014203 -0.26975125 -0.17393954 0.0057029948 -0.101120636 0.20812982
00000000: 8e52 f03e b7e5 ca3d aae2 11bd 3346 b4be
00000010: 7f5c 363e a5a4 aebe bb78 8cbc e185 d4bd
00000020: a7e0 38be 7785 5cbe e90f a73c 67f3 853c
00000030: 5202 253e d9e8 98be b6ea 89bb 8030 1d3e
00000040: eb39 723e 286c 2dbe 19fd fcbd 4bae 78bc
00000050: fb8f 92bd a836 843d de1d 05be 5056 1bbd
00000060: 2695 083d 1975 5e3e d6fd 8e3c 6d3c 8f3d
00000070: bc1d 8c3e ba74 1c3e 00ba 2f3c c5a5 c6bd
00000080: a583 643e cdde d83e 725b 323d 70d4 223f
00000090: 83ff db3e 0316 353e 4289 c63e 4cfc e63d
000000a0: 919b debd 51bf c2be 0b96 c3be e651 e63d
000000b0: f13d b43d 8b3c aa3e 5046 33be 8a40 58be
000000c0: 5496 bcbe 57c9 9f3b 495c c33e 1f43 133e
000000d0: d992 863e d553 2fbf 702f 05be a43a 8dbe
000000e0: 2df3 b53e 5fbf 35bc bab6 143e 7cdb e9be
000000f0: fda1 10be f891 873e 05f3 a8bd 277a 8f3c
00000100: ce8f b83d 9cb9 9f3e 8a8a 7bba 5ea7 253e
00000110: f3d1 6ebe 8da3 023e d78b 3bbe 059a ebbd
00000120: e313 833b d75e 6abe 5151 26bd 13dd 1d3f
00000130: 7eab e53d db85 4d3e 4570 a43e 6825 a13d
00000140: b4ca e63e f4c8 753e f34b 8bbe b97f 1a3f
00000150: 56f0 9e3d ae02 2c3f 8652 d83e 2305 e53d
00000160: a949 a83e 67e1 1d3f 9b28 993d ec5e dfbe
00000170: a608 b2be a734 c23e 8e62 aebd da16 9e3e
00000180: 0aa3 f6bc 0b6d 1cbd 5668 a0be e778 833d
00000190: 77b0 af3d a032 233d 39e7 4e3e c3ae f43c
000001a0: 1fd1 06be b029 cc3d 206e 09bd b7a0 45be
000001b0: 58dd 38be a923 e93d eac9 833d 3130 0cbe
000001c0: 8d19 d3bd 8387 113d 2698 cebd a195 a8bd
000001d0: 5112 393d 7e31 38be 2034 f9bc 58be c8bc
000001e0: 76fe 813d 530e 46be 5041 833d 7e5d 29be
000001f0: 3c51 763d 174a 5e3e ac5a 52bd 0583 52bd
00000200: b8fc 0b3c c280 95bd 8bf7 62bd 0dbe 423e
00000210: 38e6 14bc 1a46 62bd fb0e 56be 680c 13bd
00000220: 9435 233e 9e8d aabd cc2a 8bbb a8c5 bcbd
00000230: b865 cabe 9041 b7bd ccea 98bd f0ec 813e
00000240: 5f0f 793d c2ad 1abe 8360 8fbc b0a9 80bd
00000250: b844 f53d 8456 383d e865 cfbd 5238 cbbd
00000260: f809 8dbd a0fe 0a3e 29ff 12be c9df a93b
00000270: c372 b43e b3af c0be edd7 b6bd c398 a5be
00000280: 3f37 8e3d 8240 2fbe fd26 743e b13b 993d
00000290: 6513 16be c1e1 423d 96f7 fd3a 7c34 7a3e
000002a0: 2191 933d c36c 0fbe f113 f7be 0fa1 d33e
000002b0: ea12 15bd 02ab 153e 8c15 9abe e59b a1bc
000002c0: 55c6 b6be 5cf7 173e 119a 75be f75d 23be
000002d0: da18 24be a937 2abf 8cb7 643e 87be ba3d
000002e0: 3c04 133f 0394 2e3d e1aa c23d 9a95 bcbe
000002f0: 7c5b 89be 7b70 5cbd a822 593d c26f 5e3e
00000300: 5e4d c9ba adfe 63be 5316 2abf 9328 87be
00000310: 72a4 de3e 6c78 bebe 301a c13d dd36 aa3e
00000320: 2b4a d4bc d9c1 43be 64c6 37bd 8993 7bbd
00000330: b83d b13d 1737 633e 3a42 febd 11ff 28bd
00000340: f4ba 74be 35cf 4d3d 8105 813d 9234 2dbe
00000350: 4cb1 85be 3863 0dbe 4551 a03d 2ce1 603d
00000360: 8458 783e 488f 68bd 7ab8 edbd 4cba b2bd
00000370: dda2 ba3d d86b 6d3e 1f87 34bd 9437 3bbe
00000380: 183f 0a3e 8ab1 01bf 4c4a 02be 5a9a 533b
00000390: 7512 10be 5583 0d3e 95e2 f0bd 3b64 e73c
000003a0: cc3e c2bc 2fde 61be 6e84 0f3e 5956 8dbe
000003b0: d496 eebe 8fdf ecbc 2239 01be 7d56 08bf
000003c0: c520 573d 9fbf bf3e 4e8b 723d 40e6 64be
000003d0: 0406 a4bd ba28 05be 6902 3fbe 43e1 463e
000003e0: 040a b83e 3162 cbbd 7f8d 943e d61c 8abe
000003f0: 351d 32be 30e0 ba3b 5618 cfbd fc1f 553e

l1/b f4 [50]
-0.28508356 -0.32843184 0.07274065 0.35291654 0.21846776 0.115477726 0.26765794 -0.27549124
-0.25433406 -0.24955803 0.29706898 0.17616415 -0.006633751 0.29521185 -0.32290936 0.30447626
0.201285 -0.33141395 -0.2163623 0.077927485 -0.19859403 0.25961855 0.26357645 -0.21355325
-0.2670449 -0.28251854 0.2846016 0.193733 0.32409248 0.38285634 0.2896239 -0.36756232
-0.29269448 0.29751727 -0.29452357 0.0010819027 0.2798057 -0.16440605 -0.27245975 -0.23817454
0.28325427 -0.14049642 0.28784108 0.25952005 -0.36558163 0.18868889 -0.26972693 0.33984926
0.29166323 0.30346492
00000000: 79f6 91be 3828 a8be 0df9 943d 7ab1 b43e
00000010: 03b6 5f3e 967f ec3d 760a 893e 300d 8dbe
00000020: 1338 82be 248c 7fbe 6d19 983e 6064 343e
00000030: f05f d9bb 0226 973e 6054 a5be 50e4 9b3e
00000040: a81d 4e3e 17af a9be 148e 5dbe 7298 9f3d
00000050: 3c5c 4bbe b9ec 843e 7ef3 863e b4ad 5abe
00000060: 1cba 88be 45a6 90be 4db7 913e f261 463e
00000070: 73ef a53e bf05 c43e 9549 943e 2131 bcbe
00000080: 0ddc 95be 2f54 983e cbcb 96be a1ce 8d3a
00000090: b142 8f3e 0f5a 28be d87f 8bbe 07e4 73be
000000a0: b406 913e 4bde 0fbe e85f 933e d0df 843e
000000b0: 842d bbbe a937 413e a619 8abe b900 ae3e
000000c0: e254 953e c15f 9b3e

l0/W f4 [50, 4]
0.37331003 0.015981745 0.513309 -0.38330838 -0.20312735 -0.45199558 -0.18296348 0.1597768
-0.037376553 0.35846627 -0.68331015 0.01216862 0.108476095 0.6334532 0.7724124 0.74907845
-0.059292857 0.5959373 0.57887024 0.5190916 -0.19512752 -0.12128175 -0.1359686 0.36269057
0.4619489 0.11673393 -0.024213359 -0.23113462 -0.056488395 0.21677393 0.847549 0.21695757
0.12822331 0.4572091 -0.6358765 0.07145574 0.02711963 0.6349278 0.38313746 0.7679944
1.0445582 0.93883675 0.3169895 -0.7382662 0.31946322 0.41715586 -0.27434418 -0.019535277
0.03755289 -0.012135982 -0.20232141 -0.3048165 0.7253297 0.5842295 0.12613188 0.071889915
-0.1660845 0.54081774 0.35408956 -0.049234357 0.6158332 0.3929958 -0.05086911 -0.09887056
0.38249797 0.44281492 -0.62517977 -0.10414524 -0.30680695 -0.14520755 -0.5298529 -0.43983054
0.5311143 -0.33438146 -0.45841873 -0.28995547 0.26984003 -0.0046982425 0.7189453 -0.42330083
-1.3016826 -0.13099068 1.0303935 -0.005184027 0.05238741 -0.04558785 -0.6006361 -0.3539535
-0.1241752 -0.23226887 0.8960107 -0.65685695 0.18920732 0.5260448 -0.09150166 -0.123634644
0.3562452 0.73766005 -0.06652438 -0.38987708 -0.13767295 0.3143105 -0.8329379 -0.12760186
-1.3010747 0.34711787 0.76725334 0.31546986 0.47771123 -0.2479367 -0.15034682 0.28175724
0.21853982 0.31495938 0.073817745 -0.19985111 0.54402107 0.006334568 0.36846706 0.48965782
-0.36294833 -0.08464994 -0.013482169 -0.5193024 -0.011540753 0.3197132 1.3777038 0.4739449
0.68143594 0.30003068 -0.36939144 -0.13900247 -0.108805224 0.4787463 -1.247295 -0.0075272573
-0.1318159 -0.8651694 -0.8537596 -0.83151263 0.57762766 -0.122218326 -0.7484615 -0.42763513
0.5545761 -0.43362603 -0.8721545 -0.49764428 0.32451195 -0.23969321 0.8154672 0.11477847
-1.2121537 -0.2908216 0.567908 0.117302395 0.17293644 -0.79551625 -0.94735986 -0.7944179
0.09792615 -0.20098884 -1.1447792 0.97319573 0.34920627 0.19662553 -0.13328794 0.58944976
-0.20957178 0.36766666 0.6839654 0.35951942 0.20745547 0.24957922 -0.0029879706 0.570586
-0.58360785 0.22372878 1.2228584 0.43356067 0.25333598 0.43224743 -0.46813598 -0.059306696
-0.6347892 -0.12457461 -0.15251015 -0.5684173 -0.34712166 -0.03953349 0.80287266 0.16507988
-0.49532196 0.22113408 -0.1994132 -0.3323963 0.00987182 -0.5680641 -0.78902173 -0.39296094
00000000: 7e22 bf3e 26ec 823c 3868 033f ff40 c4be
00000010: 9e00 50be f76b e7be c75a 3bbe 889c 233e
00000020: 2818 19bd e488 b73e 6aed 2ebf e45e 473c
00000030: b728 de3d fd29 223f d2bc 453f 9bc3 3f3f
00000040: 11dd 72bd 598f 183f d730 143f 30e3 043f
00000050: 82cf 47be 9162 f8bd 5a3b 0bbe 94b2 b93e
00000060: 9184 ec3e 3312 ef3d 185b c6bc 8eae 6cbe
00000070: 6060 67bd fcf9 5d3e f9f8 583f 202a 5e3e
00000080: f94c 033e 5017 ea3e cdc8 22bf 6357 923d
00000090: fc29 de3c a18a 223f 982a c43e 489b 443f
000000a0: 15b4 853f 9b57 703f 734c a23e 04ff 3cbf
000000b0: af90 a33e 7495 d53e d776 8cbe 7208 a0bc
000000c0: 0fd1 193d ffd5 46bc 582d 4fbe e910 9cbe
000000d0: 35af 393f 1190 153f b728 013e 053b 933d
000000e0: 0e12 2abe 0873 0a3f 3a4b b53e f7a9 49bd
000000f0: 3fa7 1d3f bf36 c93e 215c 50bd a67c cabd
00000100: c6d6 c33e a3b8 e23e c80b 20bf 194a d5bd
00000110: cd15 9dbe 4ab1 14be 71a4 07bf 7831 e1be
00000120: 1bf7 073f 0c34 abbe dcb5 eabe 0b75 94be
00000130: 7928 8a3e b7f3 99bb cd0c 383f e3ba d8be
00000140: 899d a6bf 6c22 06be efe3 833f c5de a9bb
00000150: 2e94 563d 53ba 3abd 4ac3 19bf 6539 b5be
00000160: 914f febd e4d7 6dbe f560 653f c727 28bf
00000170: 90bf 413e dfaa 063f 3965 bbbd 2934 fdbd
00000180: c565 b63e 4ad7 3c3f ef3d 88bd f89d c7be
00000190: 23fa 0cbe 4eed a03e 6b3b 55bf 10aa 02be
000001a0: 9e89 a6bf 6fb9 b13e b76a 443f 4485 a13e
000001b0: 9196 f43e 1ee3 7dbe 84f4 19be 7c42 903e
000001c0: e7c8 5f3e 5b42 a13e c22d 973d c5a5 4cbe
000001d0: f744 0b3f 3592 cf3b b7a7 bc3e 6eb4 fa3e
000001e0: 5dd4 b9be f35c adbd 51e4 5cbc 01f1 04bf
000001f0: 6d15 3dbc 73b1 a33e 9958 b03f e8a8 f23e
00000200: 9672 2e3f 9f9d 993e e020 bdbe aa56 0ebe
00000210: 46d5 debd 3c1e f53e 5da7 9fbf 36a7 f6bb
00000220: bffa 06be be7b 5dbf fd8f 5abf 03de 54bf
00000230: 68df 133f 9a4d fabd 2c9b 3fbf fef2 dabe
00000240: b3f8 0d3f 3b04 debe 8445 5fbf 3bcb febe
00000250: 6e26 a63e 2372 75be 75c2 503f f910 eb3d
00000260: da27 9bbf 92e6 94be 6b62 113f 3d3c f03d
00000270: 4016 313e f4a6 4bbf 2d86 72bf f95e 4bbf
00000280: 818d c83d 05d0 4dbe 2088 92bf 5b23 793f
00000290: 2acb b23e 3458 493e a27c 08be 2ee6 163f
000002a0: fc99 56be ce3e bc3e 5b18 2f3f ee12 b83e
000002b0: 356f 543e b291 7f3e d4d1 43bb ed11 123f
000002c0: 5367 15bf 2819 653e a086 9c3f aafb dd3e
000002d0: 41b5 813e 894f dd3e 85af efbe 94eb 72bd
000002e0: 8c81 22bf f920 ffbd 9f2b 1cbe cc83 11bf
000002f0: eeb9 b1be deed 21bd 1089 4d3f b30a 293e
00000300: d79a fdbe f970 623e f932 4cbe d92f aabe
00000310: 6abd 213c a66c 11bf 54fd 49bf 2d32 c9be

l0/b f4 [50]
-0.56358683 -0.53679883 -0.22213712 0.6825199 -0.20608956 0.62192917 -0.4091138 -0.29990664
-0.11268343 0.62701553 -0.0011308731 -0.46230617 0.32486072 0.37375575 -0.32105547 -0.43498003
-0.44470152 0.52343404 0.4641488 -0.43518922 -0.30160344 0.56472784 0.4882645 0.5671165
-0.25314614 -0.61248 -0.37255102 -0.4508681 -0.6199841 -0.5976956 -0.6811943 -0.6929843
0.52381766 -0.6634265 0.53754866 -0.765552 -0.43692106 -0.46756035 -0.63760245 -0.64162076
-0.15665126 0.66921306 -0.13382518 -0.552452 -0.734449 -0.52457845 0.5432797 -0.2947851
0.57401097 0.17646953
00000000: 3a47 10bf a66b 09bf ea77 63be a0b9 2e3f
00000010: 2409 53be c036 1f3f 5d77 d1be 5d8d 99be
00000020: 92c6 e6bd 1784 203f ce39 94ba 65b3 ecbe
00000030: 2554 a63e ea5c bf3e 6261 a4be b4b5 debe
00000040: ebaf e3be c6ff 053f e9a4 ed3e 1fd1 debe
00000050: c46b 9abe 0192 103f cefd f93e 8c2e 113f
00000060: 5f9c 81be 7dcb 1cbf 02bf bebe 2fd8 e6be
00000070: 47b7 1ebf 9402 19bf c062 2ebf 6b67 31bf
00000080: ea18 063f 52d6 29bf ca9c 093f 37fb 43bf
00000090: 1eb4 dfbe 1264 efbe ea39 23bf 4241 24bf
000000a0: 3069 20be 8c51 2b3f 7809 09be 7f6d 0dbf
000000b0: da04 3cbf c64a 06bf 6114 0b3f 13ee 96be
000000c0: 62f2 123f 6eb4 343e
