result/2000_finish/target_model.npz (npz, 12085 bytes, 6 tensors)

l2/W f4 [2, 50]
-0.47206584 -0.4653143 -0.17652611 0.9317194 0.13202702 0.13994437 0.37665537 -0.27573925
-0.47276568 -0.41945493 0.45733207 0.13927339 0.09706793 0.60181695 -0.91494584 0.66407835
0.30587608 -0.33130524 -0.5557641 -0.2845355 -0.60173506 0.14197557 0.556206 -0.22473764
-0.32019934 -0.7069997 0.2191769 0.21869023 0.27248958 0.60910046 0.59129065 -0.27801877
-0.7973675 0.41382623 -0.65391976 -0.36343774 0.42778933 -0.31511533 -0.69776493 -0.82672864
0.21108212 -0.44681913 0.45193622 0.59989274 -0.26929212 0.48554206 -0.45099968 0.37194148
0.47073445 0.85591865 -0.6405196 -1.2347927 0.16512334 0.5112953 0.30249697 -0.09294083
0.28093857 -0.3940663 -0.7049446 -0.47643116 0.40249076 0.2874105 0.005277589 0.7689621
-0.7085946 0.57881534 0.03737125 -0.6175424 -0.07724219 -0.51582354 -0.14558908 0.3774939
0.13163023 -0.4401519 -0.67620015 -0.63703763 0.7322359 0.11351672 0.6431395 0.88530546
0.30994925 -0.85118824 -0.43029684 0.3800302 -0.223562 -0.029945016 0.4816113 -0.3111755
-0.27322894 -0.31380156 0.539629 -0.14005053 0.5133196 0.3148147 -0.7078327 0.5479259
-0.44813552 0.7481829 0.4526017 0.45189297
00000000: 9db2 f1be ad3d eebe 43c3 34be 2a85 6e3f
00000010: 1732 073e 944d 0f3e f9d8 c03e b22d 8dbe
00000020: 580e f2be ccc2 d6be 6e27 ea3e af9d 0e3e
00000030: 8dcb c63d ad10 1a3f e439 6abf 0a01 2a3f
00000040: ca9b 9c3e d7a0 a9be 8e46 0ebf a3ae 91be
00000050: 4f0b 1abf 0b62 113e 8463 0e3f a021 66be
00000060: 2bf1 a3be effd 34bf e96f 603e 55f0 5f3e
00000070: c183 8b3e 02ee 1b3f d35e 173f 7a58 8ebe
00000080: 4720 4cbf 08e1 d33e 4967 27bf 8314 babe
00000090: 3407 db3e cc56 a1be b9a0 32bf 7da4 53bf
000000a0: e925 583e 7ac5 e4be 2f64 e73e 9292 193f
000000b0: a8e0 89be f898 f83e 6ee9 e6be 1d6f be3e
000000c0: 1b04 f13e 7c1d 5b3f 18f9 23bf b00d 9ebf
000000d0: 1816 293e 40e4 023f e2e0 9a3e c357 bebd
000000e0: 2ed7 8f3e 0fc3 c9be 4077 34bf c9ee f3be
000000f0: 4513 ce3e 7827 933e a0ef ac3b b3da 443f
00000100: 7566 35bf 3e2d 143f 9912 193d 4217 1ebf
00000110: 2731 9ebd 030d 04bf 4e15 15be e146 c13e
00000120: 13ca 063e 975b e1be 741b 2dbf e614 23bf
00000130: d073 3b3f 747b e83d caa4 243f 61a3 623f
00000140: abb1 9e3e 79e7 59bf de4f dcbe 5293 c23e
00000150: 70ed 64be 404f f5bc c295 f63e 6552 9fbe
00000160: aae4 8bbe 99aa a0be 2025 0a3f 6869 0fbe
00000170: ea68 033f 642f a13e 8634 35bf df44 0c3f
00000180: 0572 e5be ea88 3f3f 69bb e73e 845e e73e

l2/b f4 [2]
0.33672926 0.31346476
00000000: c767 ac3e 747e a03e

l1/W f4 [50, 50]
0.4696029 0.09841164 -0.03505866 -0.35242486 0.17638123 -0.34195358 -0.017253043 -0.10484433
-0.18045123 -0.21608265 0.021092705 0.016185176 0.16236639 -0.2980083 -0.0030235022 0.15375194
0.2367088 -0.16656096 -0.12350237 -0.014453473 -0.07176991 0.065818526 -0.12760878 -0.037268817
0.034174707 0.21842024 0.017347487 0.06728458 0.27393723 0.14967303 0.011924953 -0.099191874
0.22371 0.42443994 0.046109475 0.63554513 0.42949104 0.17473681 0.38720325 0.11322758
-0.11077658 -0.3815028 -0.38292354 0.109700345 0.08744175 0.33245197 -0.17225492 -0.21145053
-0.36545238 0.006030013 0.3816824 0.14385071 0.26238313 -0.6831077 -0.12932977 -0.2756541
0.35523865 -0.010458761 0.14493583 -0.45542532 -0.14130983 0.26470467 -0.08265385 0.017544717
0.090330906 0.31200284 -0.0013145307 0.16164212 -0.23358525 0.1277572 -0.1827478 -0.11517028
0.0040530204 -0.22893982 -0.040691774 0.61583066 0.112594806 0.20070523 0.3211141 0.0787008
0.45011604 0.24020289 -0.27218512 0.6024692 0.07724038 0.67085487 0.42127413 0.11201905
0.32882175 0.6147481 0.07476514 -0.43564573 -0.3470354 0.37935185 -0.08499628 0.30845937
-0.03015492 -0.037825827 -0.31329745 0.06308316 0.08822194 0.037741832 0.20264071 0.03155254
-0.12905422 0.098647326 -0.030130671 -0.1919288 -0.17828007 0.115491286 0.06813264 -0.13340451
-0.10260031 0.037719738 -0.09962622 -0.07756176 0.04881667 -0.18264037 -0.02879935 -0.022550136
0.06177841 -0.19303107 0.06358688 -0.16344438 0.0643382 0.21622491 -0.053099062 -0.049863376
0.010834785 -0.06974503 -0.05708083 0.1918301 -0.00729309 -0.05559292 -0.21360242 -0.033951033
0.16017768 -0.08190732 -0.0052743857 -0.0937002 -0.39694634 -0.08781258 -0.07394624 0.25577405
0.059533242 -0.14814164 -0.021396274 -0.064519905 0.11788915 0.042009793 -0.10023726 -0.10047251
-0.06814327 0.13444743 -0.1445651 0.004183147 0.35322595 -0.37665516 -0.088693425 -0.32473797
0.06944741 -0.17053048 0.23953989 0.07575764 -0.14577687 0.04806249 0.002448473 0.24573776
0.071739815 -0.13896714 -0.4824222 0.41437945 -0.034561817 0.14736941 -0.30074382 -0.018806396
-0.35663298 0.14703545 -0.23904037 -0.16118315 -0.15899412 -0.6657659 0.22420838 0.091936484
0.5756257 0.04374074 0.09632262 -0.3691163 -0.269082 -0.05253268 0.05241893 0.2159351
-0.0024497237 -0.22431082 -0.66488487 -0.26335004 0.4367059 -0.37253 0.09566747 0.33287713
-0.02628574 -0.19071521 -0.045236632 -0.060936276 0.08734879 0.2224905 -0.12427688 -0.040639136
-0.23922555 0.05088689 0.0629036 -0.16930407 -0.2620056 -0.13831867 0.07746318 0.054675486
0.24220058 -0.058208752 -0.11637908 -0.08786754 0.09095266 0.23089546 -0.045463435 -0.18325688
0.13449652 -0.5071302 -0.12736243 0.004666815 -0.14114846 0.13981578 -0.11851379 0.029423252
-0.023955652 -0.22097966 0.13888507 -0.2759972 -0.46599224 -0.02774866 -0.12606542 -0.53294694
0.053699005 0.3754261 0.059769165 -0.22209679 -0.07942953 -0.13032007 -0.18813446 0.19456543
0.35794714 -0.09978844 0.2899997 -0.26948532 -0.17383264 0.0053554075 -0.10128584 0.2080398
00000000: cb6f f03e 0b8c c93d ab99 0fbd 0871 b4be
00000010: 489d 343e 8a14 afbe 4156 8dbc a0b8 d6bd
00000020: 35c8 38be c544 5dbe 9cca ac3c c696 843c
00000030: 6043 263e 8b94 98be f325 46bb 2671 1d3e
00000040: cb63 723e f58e 2abe d0ee fcbd 42ce 6cbc
00000050: 1afc 92bd ddcb 863d e0ab 02be 30a7 18bd
00000060: c7fa 0b3d 8ea9 5f3e 511c 8e3c 7fcc 893d
00000070: 8041 8c3e e343 193e e160 433c 1c25 cbbd
00000080: 3c14 653e 3150 d93e 4add 3c3d 16b3 223f
00000090: 40e6 db3e 35ee 323e 813f c63e dde3 e73d
000000a0: d5de e2bd 5654 c3be 8e0e c4be 93aa e03d
000000b0: a914 b33d 2537 aa3e 9863 30be 7d86 58be
000000c0: 931c bbbe 6a97 c53b e06b c33e 9a4d 133e
000000d0: 1557 863e 25e0 2ebf 066f 04be 8922 8dbe
000000e0: d7e1 b53e 395b 2bbc 0f6a 143e 822d e9be
000000f0: 86b3 10be 5f87 873e 6c46 a9bd f0b9 8f3c
00000100: 69ff b83d d6be 9f3e 554c acba 8385 253e
00000110: f930 6fbe c9d2 023e 3d22 3bbe 65de ebbd
00000120: 33cf 843b 336f 6abe 6bac 26bd 14a7 1d3f
00000130: 1b98 e63d ac85 4d3e 1169 a43e e32d a13d
00000140: 9c75 e63e bff7 753e d95b 8bbe 6c3b 1a3f
00000150: 3430 9e3d 25bd 2b3f 3eb1 d73e 3e6a e53d
00000160: 535b a83e 2260 1d3f 771e 993d f50c dfbe
00000170: a0ae b1be 683a c23e 8812 aebd 63ee 9d3e
00000180: 7307 f7bc 41ef 1abd 8668 a0be be31 813d
00000190: b4ad b43d 2e97 1a3d 0c81 4f3e 3c3d 013d
000001a0: ca26 04be 9c07 ca3d 99d4 f6bc fc88 44be
000001b0: 0d8f 36be b286 ec3d 2089 8b3d 319b 08be
000001c0: 1d20 d2bd 0380 1a3d d508 ccbd b3d8 9ebd
000001d0: fdf3 473d 1406 3bbe 9dec ebbc 10bb b8bc
000001e0: 5c0b 7d3d f0a9 45be d739 823d f75d 27be
000001f0: bfc3 833d 106a 5d3e 677e 59bd 8a3d 4cbd
00000200: 6284 313c 7bd6 8ebd 97cd 69bd 1c6f 443e
00000210: e0fa eebb 67b5 63bd 98ba 5abe 3d10 0bbd
00000220: 9e05 243e 06bf a7bd c1d4 acbb e4e5 bfbd
00000230: 8d3c cbbe 15d7 b3bd 2071 97bd d1f4 823e
00000240: 21d9 733d 71b2 17be 3d47 afbc 0323 84bd
00000250: de6f f13d 7612 2c3d 3149 cdbd 88c4 cdbd
00000260: b38e 8bbd 96ac 093e e008 14be c812 893b
00000270: 08da b43e f2d8 c0be e6a4 b5bd 0e44 a6be
00000280: 723a 8e3d 8b9f 2ebe f249 753e d226 9b3d
00000290: 8846 15be 2cdd 443d 8f76 203b aea2 7b3e
000002a0: 53ec 923d 674d 0ebe 0b00 f7be 8b29 d43e
000002b0: b190 0dbd 02e8 163e 18fb 99be df0f 9abc
000002c0: 9998 b6be 7690 163e 00c7 74be 320d 25be
000002d0: 5bcf 22be a26f 2abf e296 653e 3249 bc3d
000002e0: 355c 133f 7d29 333d cb44 c53d d0fc bcbe
000002f0: 1ec5 89be 822c 57bd 3bb5 563d 171e 5d3e
00000300: 8b8b 20bb bcb1 65be e535 2abf d1d5 86be
00000310: ea97 df3e 41bc bebe 4eed c33d df6e aa3e
00000320: 3155 d7bc d94a 43be 0c4a 39bd 5198 79bd
00000330: ece3 b23d 8dd4 633e e084 febd 3975 26bd
00000340: 8bf7 74be c66e 503d 9ad3 803d 0c5e 2dbe
00000350: 9925 86be 69a3 0dbe 04a5 9e3d 67f3 5f3d
00000360: 6e03 783e 4d6c 6ebd 2858 eebd e6f3 b3bd
00000370: 6345 ba3d dc6f 6c3e de37 3abd b1a7 3bbe
00000380: 75b9 093e 49d3 01bf 4c6b 02be 15ec 983b
00000390: 3989 10be de2b 0f3e 5cb7 f2bd 0809 f13c
000003a0: a53e c4bc 7e48 62be e337 0e3e 814f 8dbe
000003b0: 8996 eebe 2851 e3bc 4b17 01be 366f 08bf
000003c0: 7df3 5b3d da37 c03e 83d0 743d 576d 63be
000003d0: f3ab a2bd a072 05be 52a6 40be 293c 473e
000003e0: d944 b73e e25d ccbd d77a 943e fbf9 89be
000003f0: 2f01 32be 6a7c af3b f36e cfbd 6308 553e

l1/b f4 [50]
-0.2843516 -0.32839623 0.07407305 0.35165882 0.21757519 0.11470041 0.26651698 -0.27350476
-0.2511418 -0.24886201 0.29654968 0.17482144 -0.0071380017 0.29310814 -0.32076964 0.30328974
0.198462 -0.32979602 -0.21695134 0.07708733 -0.20021263 0.25869605 0.2628711 -0.21344227
-0.26753664 -0.28118938 0.2833056 0.19230703 0.32194635 0.38109025 0.2899003 -0.36561212
-0.2914018 0.29679888 -0.29590216 -0.00089784584 0.27762532 -0.16606387 -0.27252558 -0.23480622
0.2835133 -0.13863267 0.28652626 0.25911286 -0.3638432 0.18845527 -0.26909804 0.33837673
0.29125956 0.30224442
00000000: 8896 91be 8d23 a8be 9cb3 973d a00c b43e
00000010: 08cc 5e3e 0ce8 ea3d ea74 883e d108 8cbe
00000020: a895 80be afd5 7ebe 5cd5 973e 6404 333e
00000030: e6e5 e9bb 4512 963e eb3b a4be cb48 9b3e
00000040: 9f39 4b3e 06db a8be 7e28 5ebe f6df 9d3d
00000050: 8a04 4dbe cf73 843e 0a97 863e 9c90 5abe
00000060: 90fa 88be 0ef8 8fbe 6e0d 913e 22ec 443e
00000070: 27d6 a43e 431e c33e d06d 943e 8331 bbbe
00000080: 9e32 95be 06f6 973e 7d80 97be 6a5d 6bba
00000090: e824 8e3e a60c 2abe 7988 8bbe 0b71 70be
000000a0: a828 913e b9f5 0dbe 92b3 923e 71aa 843e
000000b0: a849 babe 6bfa 403e 38c7 89be b73f ad3e
000000c0: f91f 953e c8bf 9a3e

l0/W f4 [50, 4]
0.3716985 0.018939445 0.51391506 -0.3859288 -0.20372221 -0.45367935 -0.18292771 0.16148677
-0.036790635 0.36099926 -0.6826958 0.009127761 0.104107335 0.62898797 0.77104336 0.75278026
-0.06158863 0.5923914 0.57873464 0.52251244 -0.1916855 -0.12322361 -0.1361594 0.36551738
0.46150398 0.119698234 -0.023317013 -0.23332433 -0.058550064 0.2149379 0.84759176 0.21949035
0.12502019 0.45793915 -0.63580465 0.06977484 0.024106223 0.63054997 0.381958 0.77174366
1.0442989 0.938932 0.31695127 -0.73886156 0.31844452 0.4187935 -0.2740628 -0.02132661
0.037043653 -0.011792269 -0.20261103 -0.30677554 0.7251831 0.58396405 0.1261377 0.072006196
-0.16966431 0.5405742 0.35339376 -0.05130118 0.6170494 0.39536026 -0.050148904 -0.100612044
0.3831845 0.44533992 -0.6247444 -0.106193095 -0.3061741 -0.1444853 -0.5298747 -0.441606
0.5306838 -0.33363625 -0.45867422 -0.29127902 0.26791593 -0.002261389 0.7195049 -0.42551637
-1.3023251 -0.13391027 1.0302832 -0.0024312723 0.053443752 -0.044269234 -0.60059536 -0.35583746
-0.12127988 -0.23061639 0.896427 -0.6578342 0.18878247 0.5275601 -0.09137693 -0.12508394
0.3568811 0.7391295 -0.066625915 -0.3909569 -0.13927013 0.3172706 -0.8319754 -0.1306038
-1.3012619 0.34495026 0.76742315 0.31776574 0.47548175 -0.25025535 -0.15102401 0.28361207
0.21775636 0.3180053 0.07426078 -0.2022175 0.5451397 0.0072505926 0.368086 0.49023563
-0.3612691 -0.08113188 -0.012818233 -0.52252233 -0.013633762 0.31766692 1.3774761 0.47641805
0.6814725 0.30275622 -0.3694892 -0.14182998 -0.11069858 0.48247057 -1.2464521 -0.011207986
-0.13230531 -0.8629928 -0.85432935 -0.83431363 0.57613724 -0.118466064 -0.74740326 -0.43109557
0.55119455 -0.4309671 -0.87173176 -0.5014973 0.32232568 -0.24118115 0.81525296 0.11645979
-1.2129816 -0.2934074 0.56802934 0.11967934 0.17635457 -0.7912667 -0.9459968 -0.79803574
0.09453988 -0.20495422 -1.1456839 0.9732198 0.3471716 0.19289906 -0.13418213 0.59288067
-0.2087431 0.36468327 0.6841733 0.3635683 0.20643802 0.2488763 -0.0031603293 0.5721264
-0.58329934 0.22124073 1.2232823 0.4364797 0.25268525 0.43547258 -0.46750823 -0.06192267
-0.6372154 -0.12438385 -0.15225522 -0.56976557 -0.34618032 -0.040555075 0.80286634 0.16691607
-0.49274683 0.22282824 -0.19861256 -0.33373767 0.013045987 -0.563273 -0.7891539 -0.3977315
00000000: 444f be3e e526 9b3c f08f 033f 7698 c5be
00000010: 8e9c 50be a948 e8be 6751 3bbe ca5c 253e
00000020: c7b1 16bd e5d4 b83e 27c5 2ebf 9b8c 153c
00000030: 3a36 d53d 5b05 213f 1963 453f 35b6 403f
00000040: 5c44 7cbd f6a6 173f f427 143f 60c3 053f
00000050: 3449 44be a95c fcbd 5f6d 0bbe 1825 bb3e
00000060: 404a ec3e 5924 f53d 5203 bfbc 93ec 6ebe
00000070: 31d2 6fbd ae18 5c3e c6fb 583f 14c2 603e
00000080: 4b05 003e 0077 ea3e 18c4 22bf 1ce6 8e3d
00000090: 6a7a c53c b96b 213f 0090 c33e fe90 453f
000000a0: 96ab 853f d95d 703f 7047 a23e 0826 3dbf
000000b0: 290b a33e 1a6c d63e f651 8cbe 25b5 aebc
000000c0: 16bb 173d 5c34 41bc 4479 4fbe af11 9dbe
000000d0: 9aa5 393f ab7e 153f 3e2a 013e fc77 933d
000000e0: 7bbc 2dbe 1263 0a3f 07f0 b43e 3021 52bd
000000f0: f3f6 1d3f a96c ca3e f068 4dbd b00d cebd
00000100: c230 c43e 9803 e43e 40ef 1fbf c47b d9bd
00000110: dac2 9cbe f4f3 13be dea5 07bf 2e1a e2be
00000120: e5da 073f 5fd2 aabe 59d7 eabe 8622 95be
00000130: 472c 893e d033 14bb 7931 383f 48dd d9be
00000140: 97b2 a6bf c61f 09be 52e0 833f fb55 1fbb
00000150: d6e7 5a3d a853 35bd 9ec0 19bf 5430 b6be
00000160: 9661 f8bd b426 6cbe 3d7c 653f d267 28bf
00000170: 3150 413e 2e0e 073f d423 bbbd 0116 00be
00000180: 1fb9 b63e 9737 3d3f 2b73 88bd 812b c8be
00000190: d49c 0ebe 4b71 a23e 57fc 54bf 01bd 05be
000001a0: c08f a6bf 529d b03e d875 443f 31b2 a23e
000001b0: 5872 f33e 7821 80be 0aa6 1abe 9a35 913e
000001c0: 86fb 5e3e 97d1 a23e 0916 983d 1b12 4fbe
000001d0: 468e 0b3f 6196 ed3b c575 bc3e 2a00 fb3e
000001e0: 43f8 b8be 7928 a6bd 9103 52bc 06c4 05bf
000001f0: 2460 5fbc 3da5 a23e 2351 b03f 11ed f33e
00000200: fb74 2e3f dd02 9b3e b02d bdbe e13b 11be
00000210: f0b5 e2bd 6206 f73e be8b 9fbf b3a1 37bc
00000220: 0b7b 07be 19ed 5cbf 54b5 5abf 9495 55bf
00000230: bb7d 133f 569e f2bd d255 3fbf 8fb8 dcbe
00000240: 161b 0d3f b8a7 dcbe d029 5fbf 2162 00bf
00000250: df07 a53e 31f8 76be 6bb4 503f 7882 ee3d
00000260: fb42 9bbf 7f39 96be 5f6a 113f 711a f53d
00000270: 4b96 343e 7490 4abf d92c 72bf 124c 4cbf
00000280: 209e c13d 85df 51be c5a5 92bf ef24 793f
00000290: 7ac0 b13e 5587 453e 0a67 09be 07c7 173f
000002a0: c0c0 55be c4b7 ba3e fb25 2f3f a025 ba3e
000002b0: 7d64 533e 6ed9 7e3e 871d 4fbb e076 123f
000002c0: 1b53 15bf ee8c 623e 8494 9c3f 447a df3e
000002d0: f65f 813e 43f6 de3e 3d5d efbe a0a2 7dbd
000002e0: 8c20 23bf f6bc febd cbe8 1bbe 28dc 11bf
000002f0: 8c3e b1be 141d 26bd a688 4d3f 0cec 2a3e
00000300: 5049 fcbe 162d 643e 1761 4bbe aadf aabe
00000310: d6be 553c a932 10bf fd05 4abf 77a3 cbbe

l0/b f4 [50]
-0.56123257 -0.53584254 -0.22071497 0.6782675 -0.20648889 0.6203028 -0.4069368 -0.2994895
-0.11130583 0.62271893 -0.0016922995 -0.4604162 0.32389152 0.37406906 -0.32077277 -0.43271685
-0.44272104 0.5222647 0.461534 -0.433259 -0.30124405 0.56344587 0.487563 0.5660964
-0.2534988 -0.60965145 -0.37133953 -0.448888 -0.6170358 -0.5962197 -0.6774003 -0.6914269
0.5220833 -0.65996486 0.5363494 -0.76210624 -0.4336754 -0.46640292 -0.63672566 -0.6374238
-0.15891889 0.6654371 -0.13387235 -0.5512135 -0.73207027 -0.5227069 0.5418598 -0.29437384
0.5732759 0.17613173
00000000: f0ac 0fbf fa2c 09bf 1b03 62be f0a2 2d3f
00000010: d371 53be 2acc 1e3f 055a d0be b056 99be
00000020: 50f4 e3bd 826a 1f3f 26d0 ddba acbb ebbe
00000030: 1cd5 a53e fb85 bf3e 543c a4be 108d ddbe
00000040: 55ac e2be 24b3 053f 2f4e ec3e 20d4 ddbe
00000050: a93c 9abe fd3d 103f dca1 f93e b2eb 103f
00000060: 98ca 81be 1e12 1cbf 3720 bebe a6d4 e5be
00000070: 0ff6 1dbf dba1 18bf 1b6a 2dbf 5a01 31bf
00000080: 40a7 053f 75f3 28bf 324e 093f 6519 43bf
00000090: b40a debe 5dcc eebe 7400 23bf 352e 23bf
000000a0: a2bb 22be 165a 2a3f d515 09be 541c 0dbf
000000b0: f568 3bbf 1fd0 05bf 53b7 0a3f 2bb8 96be
000000c0: 36c2 123f e05b 343e
