result/best/model.npz (npz, 12085 bytes, 6 tensors)

l2/W f4 [2, 50]
-0.45462686 -0.45528895 -0.1905986 0.9452964 0.12200403 0.1358653 0.3805296 -0.26609367
-0.46219406 -0.43101737 0.46828574 0.13010195 0.09153186 0.5908778 -0.9326389 0.6793628
0.3073739 -0.3208268 -0.5645097 -0.26946324 -0.60757387 0.13154076 0.5642466 -0.20890841
-0.30255884 -0.7211413 0.20845039 0.22438237 0.2613332 0.5983343 0.60033894 -0.26713422
-0.8108153 0.42176974 -0.65887886 -0.36200476 0.4184139 -0.32015255 -0.7088916 -0.8385729
0.1980967 -0.45496953 0.43996444 0.61096245 -0.25927556 0.4793239 -0.46316558 0.36180663
0.46022445 0.86923015 -0.64594173 -1.2342252 0.16528195 0.50416225 0.30040756 -0.09025898
0.28229064 -0.3936455 -0.7049304 -0.47363865 0.40022007 0.28876436 -0.0015891613 0.7687909
-0.69966346 0.5726872 0.04010858 -0.618414 -0.074581064 -0.51481855 -0.14181519 0.37779087
0.12943038 -0.44405806 -0.6811647 -0.62707984 0.7325065 0.11678477 0.6417422 0.88566715
0.30597952 -0.8510635 -0.42423075 0.37694037 -0.22010593 -0.033222202 0.47908252 -0.32495454
-0.26869294 -0.30641967 0.5428914 -0.13790075 0.51511294 0.31085724 -0.7096013 0.55296206
-0.44566986 0.74901026 0.45901737 0.44542652
00000000: dac4 e8be a21b e9be 482c 43be f2fe 713f
00000010: 40dd f93d 4620 0b3e c7d4 c23e 6e3d 88be
00000020: b3a4 ecbe 4fae dcbe 26c3 ef3e 7239 053e
00000030: 0e75 bb3d c443 173f 6cc1 6ebf b8ea 2d3f
00000040: 1d60 9d3e 6943 a4be b583 10bf 16f7 89be
00000050: f689 1bbf 9fb2 063e 7772 103f 16ec 55be
00000060: fee8 9abe b79c 38bf 0574 553e 7ec4 653e
00000070: 77cd 853e 702c 193f d0af 193f d1c5 88be
00000080: 9791 4fbf 34f2 d73e 49ac 28bf b058 b9be
00000090: 593a d63e 09eb a3be eb79 35bf b7ac 56bf
000000a0: dcd9 4a3e c4f1 e8be 0543 e13e 0968 1c3f
000000b0: c4bf 84be f169 f53e 0a24 edbe b83e b93e
000000c0: 8aa2 eb3e de85 5e3f 705c 25bf 17fb 9dbf
000000d0: ac3f 293e c710 013f 05cf 993e b3d9 b8bd
000000e0: 6688 903e e78b c9be 5276 34bf c480 f2be
000000f0: a5e9 cc3e ecd8 933e 684b d0ba 7bcf 443f
00000100: 251d 33bf a19b 123f e548 243d 6150 1ebf
00000110: f5bd 98bd 26cb 03bf 0038 11be ce6d c13e
00000120: 6689 043e 945b e3be cf60 2ebf 4e88 20bf
00000130: 8c85 3b3f da2c ef3d 3849 243f 15bb 623f
00000140: 59a9 9c3e 4cdf 59bf c634 d9be 54fe c03e
00000150: 7363 61be 0114 08bd 4e4a f53e 7160 a6be
00000160: 1f92 89be 0ae3 9cbe eefa 0a3f db35 0dbe
00000170: 71de 033f ae28 9f3e 6ea8 35bf ec8e 0d3f
00000180: d72e e4be 23bf 3f3f 5304 eb3e f20e e43e

l2/b f4 [2]
0.32948858 0.31916276
00000000: bab2 a83e 4d69 a33e

l1/W f4 [50, 50]
0.46681586 0.10045807 -0.03665458 -0.34842592 0.17586447 -0.33988056 -0.019648923 -0.10424061
-0.18279454 -0.21320936 0.019222442 0.014198266 0.1610863 -0.29898086 -0.004140372 0.15336499
0.23445755 -0.16412185 -0.12652467 -0.016774116 -0.07019893 0.06472557 -0.12672606 -0.039323702
0.032412887 0.2178599 0.019532148 0.06566948 0.27129823 0.14720282 0.009722883 -0.10102123
0.22186051 0.42333105 0.047113422 0.6311002 0.42612246 0.17360188 0.38905022 0.1103922
-0.11078078 -0.37916264 -0.38187462 0.10733157 0.08994099 0.32983342 -0.17193967 -0.20871297
-0.36287847 0.006124915 0.3806974 0.14558727 0.26005965 -0.6780691 -0.12612197 -0.273916
0.3532986 -0.007325189 0.14264527 -0.4513011 -0.14314517 0.26306394 -0.084681064 0.015807685
0.08978615 0.31022522 -0.0038505385 0.15964203 -0.23637162 0.12690389 -0.17942825 -0.11720229
0.0025089784 -0.23073618 -0.04244665 0.61285144 0.11600211 0.20230982 0.31971046 0.08050742
0.44804457 0.24240118 -0.27422556 0.5987573 0.07467815 0.66627485 0.4161977 0.11408347
0.3309604 0.60864025 0.07643538 -0.43371823 -0.3437526 0.38115746 -0.082840145 0.3062154
-0.032004878 -0.035131752 -0.31501177 0.05930622 0.08839322 0.038148187 0.1986564 0.029974893
-0.13251078 0.10005636 -0.029472744 -0.1930457 -0.18129066 0.113742284 0.071430005 -0.13447668
-0.10187683 0.034895375 -0.102187164 -0.07495391 0.04906182 -0.18120936 -0.026316036 -0.021822453
0.06459316 -0.19246618 0.06787045 -0.16446386 0.06845591 0.21302491 -0.05307756 -0.050036885
0.00922448 -0.07117409 -0.057642132 0.19130516 -0.008519072 -0.060011208 -0.21153432 -0.035035998
0.16069414 -0.08022125 -0.0015184571 -0.0911262 -0.4008736 -0.08770475 -0.07566314 0.2529387
0.05888808 -0.14990784 -0.019569954 -0.06443114 0.11784183 0.04482814 -0.10350614 -0.10136985
-0.072873496 0.13758029 -0.14553176 0.008053687 0.3488974 -0.37579194 -0.09364362 -0.32189003
0.060537267 -0.17593038 0.23991232 0.07529172 -0.15012175 0.042108852 -0.0038835458 0.24762937
0.0720349 -0.1415542 -0.4763406 0.41471896 -0.029349685 0.14739193 -0.30862054 -0.023526711
-0.35174492 0.14540823 -0.24383678 -0.16339852 -0.16209358 -0.66501814 0.2227884 0.08621041
0.5781 0.040124774 0.09365628 -0.3678713 -0.26733387 -0.0557144 0.057844304 0.2188058
-0.0017226486 -0.22826234 -0.6621698 -0.26906 0.44019693 -0.3694962 0.09693368 0.33298668
-0.027025435 -0.19287634 -0.044683468 -0.06438127 0.084067605 0.22241858 -0.12487002 -0.04298359
-0.2389771 0.047827225 0.06641794 -0.17077613 -0.26009938 -0.13673677 0.077183455 0.05322122
0.24201444 -0.055411354 -0.11444331 -0.08794822 0.08869652 0.23293154 -0.043242402 -0.18095295
0.13655515 -0.5061214 -0.13011228 0.002394787 -0.14215367 0.13670708 -0.11630992 0.027118811
-0.021373121 -0.2203831 0.14330763 -0.275643 -0.46416268 -0.02983809 -0.12918012 -0.5295925
0.051515996 0.37322992 0.05747038 -0.22462599 -0.08169938 -0.13122353 -0.18414441 0.19260205
0.36024252 -0.096373595 0.29217288 -0.26986527 -0.17177251 0.0040936484 -0.09982302 0.20558535
00000000: 7d02 ef3e f6bc cd3d 1d23 16bd e264 b2be
00000010: d115 343e d304 aebe c7f6 a0bc 1a7c d5bd
00000020: 7e2e 3bbe 8e53 5abe 6278 9d3c d89f 683c
00000030: cff3 243e 0514 99be f5ab 87bb b60b 1d3e
00000040: a415 703e 8f0f 28be af8f 01be df69 89bc
00000050: 75c4 8fbd d78e 843d 7ac4 01be e411 21bd
00000060: 60c3 043d aa16 5f3e e201 a03c b87d 863d
00000070: 9ae7 8a3e 56bc 163e ba4c 1f3c 38e4 cebd
00000080: 672f 633e d9be d83e 01fa 403d c88f 213f
00000090: b92c da3e b1c4 313e 9731 c73e 4e15 e23d
000000a0: 09e1 e2bd 9b21 c2be 1285 c3be a7d0 db3d
000000b0: fb32 b83d eddf a83e f410 30be dab8 55be
000000c0: 35cb b9be 83b3 c83b c5ea c23e d414 153e
000000d0: 8a26 853e f095 2dbf 1e26 01be b83e 8cbe
000000e0: 8ee3 b43e 2408 f0bb 9a11 123e f010 e7be
000000f0: a694 12be 51b0 863e 446d adbd 1e7f 813c
00000100: cde1 b73d d7d5 9e3e 5159 7cbb 3379 233e
00000110: 670b 72be 18f3 013e 0abc 37be c107 f0bd
00000120: ac6d 243b 1b46 6cbe 8adc 2dbd d5e3 1c3f
00000130: 8492 ed3d 4e2a 4f3e 17b1 a33e 13e1 a43d
00000140: 1966 e53e 0438 783e 4b67 8cbe 2948 193f
00000150: dcf0 983d fd90 2a3f dd17 d53e 98a4 e93d
00000160: a473 a93e d9cf 1b3f 278a 9c3d 5110 debe
00000170: 5700 b0be 1227 c33e 18a8 a9bd 44c8 9c3e
00000180: 8c17 03bd 50e6 0fbd 3949 a1be 14eb 723d
00000190: 8107 b53d 4641 1c3d 956c 4b3e e88d f53c
000001a0: e8b0 07be 59ea cc3d d370 f1bc c6ad 45be
000001b0: 42a4 39be b7f1 e83d e549 923d 41b4 09be
000001c0: cda4 d0bd 74ee 0e3d 8147 d1bd 7081 99bd
000001d0: 0cf5 483d f28e 39be ba94 d7bc 00c5 b2bc
000001e0: 6b49 843d db15 45be aaff 8a3d 3769 28be
000001f0: 9d32 8c3d 3423 5a3e db67 59bd 7af3 4cbd
00000200: 4622 173c b9c3 91bd 281a 6cbd 80e5 433e
00000210: 9493 0bbc 50ce 75bd 749c 58be e881 0fbd
00000220: 018d 243e 0a4b a4bd f706 c7ba 60a0 babd
00000230: 4e3f cdbe 8c9e b3bd 47f5 9abd 2e81 813e
00000240: a134 713d 7181 19be 2b51 a0bc 79f4 83bd
00000250: 0f57 f13d b69d 373d 07fb d3bd ff9a cfbd
00000260: b33e 95bd d9e1 0c3e 4706 15be 9df3 033c
00000270: aea2 b23e cd67 c0be 3ac8 bfbd c5ce a4be
00000280: edf5 773d 1827 34be 93ab 753e 8c32 9a3d
00000290: 84b9 19be 557a 2c3d 1683 7ebb 8e92 7d3e
000002a0: 0987 933d 96f3 10be eae2 f3be 0b56 d43e
000002b0: c06e f0bc e9ed 163e 8303 9ebe 17bb c0bc
000002c0: e917 b4be e5e5 143e 59b0 79be f151 27be
000002d0: dcfb 25be a13e 2abf a422 643e 158f b03d
000002e0: 5dfe 133f e059 243d ddce bf3d a159 bcbe
000002f0: fcdf 88be c834 64bd 26ee 6c3d a10e 603e
00000300: 7fca e1ba 9abd 69be f683 29bf 3bc2 89be
00000310: 7e61 e13e 9b2e bdbe 2a85 c63d 3b7d aa3e
00000320: 7264 ddbc 6081 45be 0306 37bd 54da 83bd
00000330: a32b ac3d b2c1 633e dabb ffbd 900f 30bd
00000340: 6ab6 74be 7be6 433d 2106 883d f0df 2ebe
00000350: bf2b 85be b904 0cbe 5c12 9e3d 7efe 593d
00000360: a2d2 773e 04f7 62bd 4161 eabd 321e b4bd
00000370: 85a6 b53d 9b85 6e3e f21e 31bd bb4b 39be
00000380: 1dd5 0b3e 2c91 01bf 273c 05be dcf1 1c3b
00000390: bb90 11be f1fc 0b3e e533 eebd 4528 de3c
000003a0: af16 afbc 1bac 61be 3cbf 123e 1421 8dbe
000003b0: bba6 edbe 036f f4bc cb47 04be 6093 07bf
000003c0: 7002 533d fe17 bf3e 1066 6b3d 5b04 66be
000003d0: 0152 a7bd 765f 06be 5a90 3cbe 7939 453e
000003e0: b571 b83e 855f c5bd af97 953e c82b 8abe
000003f0: 22e5 2fbe 0324 863b 0370 ccbd f784 523e

l1/b f4 [50]
-0.2863169 -0.33006737 0.07838661 0.35540313 0.21938065 0.110848956 0.2614739 -0.2761806
-0.2553575 -0.2456997 0.29590833 0.17551336 -0.008284494 0.2968484 -0.3207564 0.30529973
0.19224279 -0.33120584 -0.22339076 0.07036425 -0.20895278 0.26020116 0.26607352 -0.21365891
-0.26673505 -0.28019276 0.2844624 0.18923882 0.32528034 0.3832809 0.2959798 -0.3675703
-0.2955791 0.29366162 -0.30376726 -0.0036925995 0.28025094 -0.16854022 -0.27788103 -0.23413272
0.28399542 -0.13972463 0.28940398 0.2622911 -0.36455563 0.18736604 -0.2669703 0.34000245
0.289024 0.30580446
00000000: 2198 92be 97fe a8be 2989 a03d 66f7 b53e
00000010: 52a5 603e c704 e33d e8df 853e 8b67 8dbe
00000020: 38be 82be b498 7bbe 4c81 973e c6b9 333e
00000030: b0bb 07bc 83fc 973e 2f3a a4be 3f50 9c3e
00000040: 4bdb 443e d093 a9be 8cc0 64be 221b 903d
00000050: b8f7 55be 1639 853e ca3a 883e 67c9 5abe
00000060: 7f91 88be 6d75 8fbe 0ea5 913e d2c7 413e
00000070: 258b a63e 653d c43e aa8a 973e 2d32 bcbe
00000080: 2556 97be d15a 963e 6287 9bbe 8aff 71bb
00000090: 0d7d 8f3e cf95 2cbe 6c46 8ebe 7dc0 6fbe
000000a0: d967 913e f913 0fbe c22c 943e 054b 863e
000000b0: 09a7 babe e2dc 3f3e 55b0 88be cd14 ae3e
000000c0: f4fa 933e 6792 9c3e

l0/W f4 [50, 4]
0.37172714 0.023491515 0.51812726 -0.38144124 -0.2003853 -0.45265388 -0.18870275 0.16143575
-0.031634614 0.35885748 -0.6740454 0.0124439495 0.10140444 0.630502 0.75698596 0.7472643
-0.0701223 0.58927816 0.566201 0.5234321 -0.18568495 -0.12457627 -0.13926011 0.36190143
0.46787524 0.121809594 -0.01579546 -0.2254201 -0.06370677 0.21695404 0.8354472 0.22083285
0.12345454 0.4571826 -0.63199115 0.07705529 0.021549415 0.6326742 0.36914223 0.76565385
1.0437782 0.9397263 0.3153589 -0.74620205 0.3206358 0.41928953 -0.27123144 -0.017189326
0.03805017 -0.015604162 -0.1943529 -0.3067506 0.72176987 0.5804349 0.12988639 0.073671855
-0.17135558 0.5423465 0.35239005 -0.04843864 0.62394917 0.39435777 -0.04448521 -0.09387608
0.38809273 0.44781893 -0.6224734 -0.10333749 -0.30680072 -0.14878222 -0.5176721 -0.44176602
0.5229248 -0.3351429 -0.4515255 -0.29363412 0.26221314 -0.0018665273 0.72344804 -0.41941732
-1.2961916 -0.13409865 1.0154573 -0.0034644564 0.055907052 -0.046415243 -0.58721 -0.3559271
-0.1146919 -0.23113665 0.900674 -0.6593859 0.1841415 0.525914 -0.08690295 -0.12412437
0.363381 0.7462962 -0.06743034 -0.39309117 -0.13883817 0.31724578 -0.82247794 -0.12585007
-1.2937344 0.34553218 0.7548165 0.3176314 0.47087893 -0.25248623 -0.15595381 0.28978667
0.21628167 0.3215637 0.077058606 -0.1965029 0.5536403 0.017021736 0.35722172 0.4871901
-0.3581679 -0.08240807 -0.0050984467 -0.51673913 -0.019700687 0.31760994 1.3618944 0.47905487
0.6767354 0.30328014 -0.3638706 -0.14296181 -0.10943676 0.4831073 -1.2348256 -0.0062009995
-0.13386989 -0.8626617 -0.84248966 -0.83600575 0.57343143 -0.117716946 -0.7360814 -0.42560676
0.5407003 -0.43587214 -0.8621025 -0.49647397 0.31450003 -0.24234836 0.80283815 0.118481874
-1.2093674 -0.29421288 0.5564392 0.11935072 0.18076466 -0.79321855 -0.93154234 -0.7922599
0.098126285 -0.20787923 -1.1452384 0.9795568 0.34475648 0.19504166 -0.14393558 0.5869356
-0.20964469 0.36531368 0.6724333 0.3639399 0.2020017 0.25152493 -0.013997715 0.57223815
-0.5707858 0.22277728 1.2073952 0.43761036 0.2536292 0.43845493 -0.46371824 -0.057482906
-0.6517742 -0.13205293 -0.14147349 -0.5666622 -0.33987996 -0.036801774 0.7910596 0.16581266
-0.49188218 0.2175983 -0.19005477 -0.33306086 0.020952538 -0.5606802 -0.77649224 -0.40007442
00000000: 0553 be3e 4771 c03c fda3 043f 444c c3be
00000010: ce31 4dbe 40c2 e7be 4b3b 41be 6a4f 253e
00000020: 4c93 01bd 2bbc b73e 3d8e 2cbf b5e1 4b3c
00000030: 22ad cf3d 9468 213f d5c9 413f b74c 3f3f
00000040: 489c 8fbd efda 163f 8cf2 103f a5ff 053f
00000050: 3224 3ebe d821 ffbd 349a 0ebe 254b b93e
00000060: 588d ef3e 4f77 f93d 7b65 81bc 87d4 66be
00000070: b278 82bd 3329 5e3e dedf 553f 0222 623e
00000080: bcd5 fc3d d613 ea3e 2cca 21bf 2acf 9d3d
00000090: 6688 b03c f0f6 213f 3600 bd3e e401 443f
000000a0: 869a 853f e791 703f b976 a13e 1907 3fbf
000000b0: 602a a43e 1ead d63e d9de 8abe a1d0 8cbc
000000c0: 7fda 1b3d 99a8 7fbc 7204 47be 6a0e 9dbe
000000d0: e9c5 383f 6297 143f f000 053e 45e1 963d
000000e0: d677 2fbe 38d7 0a3f 786c b43e 9867 46bd
000000f0: 22bb 1f3f 43e9 c93e 2036 36bd 1a42 c0bd
00000100: 17b4 c63e 8648 e53e 6b5a 1fbf 9ba2 d3bd
00000110: fc14 9dbe 5e5a 18be 2986 04bf 282f e2be
00000120: 66de 053f da97 abbe 5a2e e7be 3657 96be
00000130: cd40 863e 43a6 f4ba e433 393f debd d6be
00000140: 9be9 a5bf 2851 09be 81fa 813f ef0b 63bb
00000150: cbfe 643d e91d 3ebd 6553 16bf 143c b6be
00000160: 96e3 eabd 16af 6cbe 9292 663f 84cd 28bf
00000170: 978f 3c3e 4da2 063f 2dfa b1bd eb34 febd
00000180: 130d ba3e 450d 3f3f eb18 8abd 3f43 c9be
00000190: 982b 0ebe 0a6e a23e ea8d 52bf d7de 00be
000001a0: 1799 a5bf 98e9 b03e a73b 413f 95a0 a23e
000001b0: 0b17 f13e e045 81be 5bb2 1fbe eb5e 943e
000001c0: f178 5d3e ffa3 a43e e7d0 9d3d 0e38 49be
000001d0: 5fbb 0d3f 2b71 8b3c c4e5 b63e fb70 f93e
000001e0: c861 b7be 90c5 a8bd df10 a7bb 0449 04bf
000001f0: 5663 a1bc c59d a23e 8e52 ae3f ae46 f53e
00000200: 883e 2d3f 8947 9b3e 3f4d babe 9564 12be
00000210: 6120 e0bd d759 f73e c40e 9ebf c131 cbbb
00000220: 3015 09be 66d7 5cbf 67ad 57bf 7904 56bf
00000230: 67cc 123f 9515 f1bd d56f 3cbf 21e9 d9be
00000240: 566b 0a3f a22a dfbe c0b2 5cbf d631 febe
00000250: 2606 a13e 2b2a 78be cd86 4d3f a0a6 f23d
00000260: 8dcc 9abf 12a3 96be cd72 0e3f 266e f43d
00000270: 5f1a 393e 5f10 4bbf 8f79 6ebf 8bd1 4abf
00000280: 6ff6 c83d 4bde 54be 2c97 92bf 3cc4 7a3f
00000290: ec83 b03e 00b9 473e d963 13be 6941 163f
000002a0: 19ad 56be 650a bb3e 9724 2c3f 5556 ba3e
000002b0: 89d9 4e3e e0c7 803e ac56 65bc 337e 123f
000002c0: 051f 12bf ba1f 643e ed8b 9a3f 770e e03e
000002d0: b0db 813e 2a7d e03e 7a6c edbe 3273 6bbd
000002e0: adda 26bf e238 07be 6dde 10be c610 11bf
000002f0: bf04 aebe 75bd 16bd e282 4a3f cbca 293e
00000300: fbd7 fbbe 17d2 5e3e b89d 42be f486 aabe
00000310: a8a4 ab3c bd88 0fbf 32c8 46bf 8ed6 ccbe

l0/b f4 [50]
-0.56329966 -0.54106486 -0.21967646 0.68338746 -0.21350339 0.6243207 -0.40413925 -0.30317315
-0.11132147 0.6277297 -0.0014266692 -0.46134743 0.32842705 0.38674977 -0.32424387 -0.43490452
-0.44421583 0.5264717 0.4638964 -0.43856168 -0.3082048 0.5693648 0.48912102 0.5731391
-0.25122026 -0.61140037 -0.3776259 -0.4473098 -0.6159973 -0.59812474 -0.6829612 -0.6951352
0.5269068 -0.66259295 0.54269683 -0.76401526 -0.4361923 -0.47217086 -0.6453227 -0.64092845
-0.1574422 0.671181 -0.13828723 -0.5558447 -0.7354591 -0.52548575 0.5459576 -0.2997526
0.5749235 0.1811758
00000000: 6834 10bf 3a83 0abf def2 60be 7bf2 2e3f
00000010: a2a0 5abe 7bd3 1f3f 57eb cebe 8339 9bbe
00000020: 83fc e3bd e5b2 203f 13ff baba bb35 ecbe
00000030: 9727 a83e 1104 c63e 4b03 a6be ceab debe
00000040: 4270 e3be d9c6 063f d483 ed3e 288b e0be
00000050: 05cd 9dbe e4c1 113f 126e fa3e 3eb9 123f
00000060: f19f 80be bc84 1cbf 2f58 c1be ca05 e5be
00000070: 00b2 1dbf b41e 19bf 8cd6 2ebf 61f4 31bf
00000080: 5de3 063f b19f 29bf 2eee 0a3f 8196 43bf
00000090: 9954 dfbe 61c0 f1be de33 25bf e313 24bf
000000a0: 8738 21be 85d2 2b3f 2b9b 0dbe d74b 0ebf
000000b0: 0c47 3cbf 3c86 06bf e1c3 0b3f 2c79 99be
000000c0: 302e 133f 2686 393e
