result/best/target_model.npz (npz, 12084 bytes, 6 tensors)

l2/W f4 [2, 50]
-0.4565759 -0.4579544 -0.1887191 0.9419288 0.12469101 0.13926056 0.38120052 -0.2685823
-0.4665612 -0.42900938 0.4662782 0.13262144 0.09138576 0.59345406 -0.9290432 0.67674094
0.3086958 -0.32342213 -0.56294113 -0.2671908 -0.60511255 0.13393009 0.5628882 -0.21101318
-0.3045076 -0.71854067 0.21093033 0.22315206 0.26380387 0.6010549 0.59837335 -0.26960275
-0.8083787 0.4207994 -0.6564022 -0.35581455 0.42105347 -0.31488284 -0.7066823 -0.8361477
0.20062526 -0.45304707 0.4423898 0.6089567 -0.26184595 0.4818081 -0.46193045 0.36433095
0.46301323 0.866371 -0.6444934 -1.2315934 0.1648934 0.50359464 0.2987925 -0.089076765
0.28293565 -0.391764 -0.7032705 -0.47364393 0.40043366 0.28735006 -0.0020222594 0.76621306
-0.69883776 0.5723325 0.040881563 -0.6161542 -0.075042196 -0.5110789 -0.1419912 0.376147
0.12984866 -0.44276565 -0.67981887 -0.62620115 0.730082 0.11654125 0.63917595 0.8831186
0.3063525 -0.8484555 -0.42404038 0.37678257 -0.22017398 -0.03060603 0.4775453 -0.32047427
-0.26873848 -0.30585197 0.541243 -0.13803092 0.51328295 0.31094292 -0.70735544 0.5540079
-0.445849 0.7468056 0.46033347 0.44498765
00000000: 51c4 e9be 0079 eabe 943f 41be 3f22 713f
00000010: 005e ff3d 529a 0e3e b72c c33e 9f83 89be
00000020: 1ce1 eebe 1ea7 dbbe 04bc ee3e eacd 073e
00000030: 7528 bb3d 9bec 173f c6d5 6dbf e53e 2d3f
00000040: 600d 9e3e 9697 a5be e91c 10bf 3ccd 88be
00000050: a8e8 1abf f824 093e 7119 103f d713 58be
00000060: 6ce8 9bbe 48f2 37bf 1ffe 573e f981 643e
00000070: 4d11 873e bcde 193f ff2e 193f 5f09 8abe
00000080: e8f1 4ebf 0573 d73e f909 28bf 532d b6be
00000090: 5294 d73e 5338 a1be 22e9 34bf c70d 56bf
000000a0: b570 4d3e c9f5 e7be ea80 e23e 96e4 1b3f
000000b0: ac10 86be 8daf f63e 2682 ecbe 9689 ba3e
000000c0: 1210 ed3e 7dca 5d3f 85fd 24bf daa4 9dbf
000000d0: d1d9 283e 94eb 003f 55fb 983e e16d b6bd
000000e0: f1dc 903e 4a95 c8be 8909 34bf 7581 f2be
000000f0: a405 cd3e 8c1f 933e e287 04bb 8a26 443f
00000100: 08e7 32bf 6284 123f 6d73 273d 48bc 1dbf
00000110: b9af 99bd 11d6 02bf 2466 11be 5796 c03e
00000120: 0cf7 043e 2eb2 e2be 9c08 2ebf b84e 20bf
00000130: a7e6 3a3f 2ead ee3d 09a1 233f 1014 623f
00000140: 3cda 9c3e 6134 59bf d21b d9be a5e9 c03e
00000150: 4a75 61be 7fb9 fabc d180 f43e 3415 a4be
00000160: 1798 89be a198 9cbe e78e 0a3f fa57 0dbe
00000170: 8366 033f e933 9f3e 3f15 35bf 76d3 0d3f
00000180: 5246 e4be a72e 3f3f d4b0 eb3e 6cd5 e33e

l2/b f4 [2]
0.33228523 0.3203822
00000000: 4a21 aa3e 2309 a43e

l1/W f4 [50, 50]
0.46485597 0.10262685 -0.038165342 -0.34665465 0.17760381 -0.33772215 -0.0212552 -0.10252627
-0.18447144 -0.21146034 0.017031161 0.012834391 0.158944 -0.3008594 -0.0059767566 0.15194541
0.23243661 -0.16599955 -0.128416 -0.018937893 -0.068555586 0.06257248 -0.12892886 -0.0414992
0.03001907 0.21643478 0.021304676 0.06761304 0.26941827 0.14911504 0.007847686 -0.09905332
0.2198038 0.4219094 0.045118578 0.62894285 0.42410088 0.17543621 0.39110914 0.108835235
-0.10844299 -0.37731358 -0.38002998 0.10930087 0.09209943 0.3280931 -0.17409176 -0.20668983
-0.3647277 0.0048609795 0.37800446 0.14996026 0.25728607 -0.67511326 -0.122393124 -0.2707735
0.35055095 -0.0037538959 0.13950361 -0.44823816 -0.14765431 0.26074982 -0.08881199 0.011708574
0.086584605 0.30719316 -0.0074347756 0.15529768 -0.24020188 0.12374739 -0.17563199 -0.12154939
-0.0018545036 -0.23513712 -0.0469217 0.6102668 0.11999849 0.20662124 0.31698382 0.08492879
0.4448928 0.24681374 -0.27856827 0.5962024 0.07025141 0.66354096 0.41336218 0.118293315
0.33534825 0.6057979 0.08092012 -0.4306153 -0.34027267 0.38552585 -0.07840823 0.30341572
-0.036425088 -0.031132584 -0.31939626 0.05629205 0.088980965 0.038089797 0.1984732 0.028480632
-0.13316844 0.09970369 -0.028961577 -0.19319232 -0.18148264 0.112296194 0.07103135 -0.13428515
-0.10178992 0.034700897 -0.10249387 -0.07445598 0.04919431 -0.18125042 -0.026272548 -0.021280767
0.064932905 -0.19250749 0.06818834 -0.16444574 0.0681488 0.21329339 -0.052921437 -0.049833246
0.009382964 -0.071083516 -0.056597453 0.19142373 -0.008594011 -0.060016446 -0.21139336 -0.034198806
0.16183203 -0.07978396 -0.0012287191 -0.089537755 -0.40026218 -0.08884757 -0.07626007 0.25283253
0.058869857 -0.1498453 -0.019493235 -0.06443646 0.11754586 0.045370985 -0.10582014 -0.10059681
-0.07487342 0.14071022 -0.14255618 0.010582239 0.34692463 -0.3740096 -0.09504165 -0.31877187
0.059329834 -0.17761038 0.23802753 0.075236425 -0.15180878 0.040623188 -0.0056974334 0.24473637
0.07216765 -0.14385098 -0.47623292 0.4126842 -0.031657957 0.14649066 -0.31006843 -0.02626452
-0.35136294 0.1473857 -0.24597512 -0.160393 -0.16506228 -0.6616029 0.22206299 0.083575964
0.57429373 0.037312664 0.0905628 -0.36605877 -0.26683778 -0.05889555 0.059976682 0.22179605
0.00094750006 -0.22549178 -0.660256 -0.2709815 0.43704283 -0.368142 0.09462464 0.33059347
-0.026399158 -0.1927417 -0.04423757 -0.065334044 0.084084354 0.22161657 -0.1244367 -0.04283656
-0.2386668 0.046962596 0.06651988 -0.17029661 -0.26027155 -0.13669965 0.0777267 0.053600173
0.24253877 -0.055673666 -0.114786886 -0.08739186 0.08867707 0.2325405 -0.043540742 -0.1810943
0.13682243 -0.505176 -0.12996948 0.0025416003 -0.14145772 0.13695154 -0.115289815 0.027595628
-0.02150413 -0.21941385 0.14316012 -0.27472407 -0.46358207 -0.029614383 -0.12906228 -0.5287444
0.051675037 0.37226158 0.057501346 -0.22429901 -0.08118627 -0.1306156 -0.18425351 0.19273664
0.35995927 -0.09635273 0.29190975 -0.26954153 -0.17190585 0.00476902 -0.099280275 0.20583177
00000000: 9a01 ee3e 072e d23d 4353 1cbd b87c b1be
00000010: c6dd 353e ebe9 acbe 631f aebc 4bf9 d1bd
00000020: 15e6 3cbe 0f89 58be ef84 8b3c 5647 523c
00000030: 37c2 223e 3e0a 9abe abd8 c3bb 9497 1b3e
00000040: dd03 6e3e c9fb 29be 7c7f 03be a423 9bbc
00000050: df66 8cbd 0026 803d ed05 04be 11fb 29bd
00000060: 8dea f53c 14a1 5d3e 2587 ae3c b578 8a3d
00000070: 31f1 893e 9db1 183e 9593 003c 78dc cabd
00000080: 3f14 613e 8204 d83e 42ce 383d 6602 213f
00000090: c023 d93e 8da5 333e 753f c83e 02e5 de3d
000000a0: 5c17 debd 3f2f c1be 4a93 c2be 22d9 df3d
000000b0: a09e bc3d d2fb a73e 1c45 32be 80a6 53be
000000c0: 97bd babe da48 9f3b cd89 c13e 2f8f 193e
000000d0: 00bb 833e 39d4 2cbf 3fa9 fabd d3a2 8abe
000000e0: 6a7b b33e ec03 76bb 09da 0e3e 797f e5be
000000f0: b132 17be 0081 853e 10e3 b5bd 52d5 3f3c
00000100: 4553 b13d 6c48 9d3e 6b9f f3bb 5b06 1f3e
00000110: 7bf7 75be 466f fd3d dfd8 33be e3ee f8bd
00000120: d112 f3ba c9c7 70be f830 40bd 723a 1c3f
00000130: c5c1 f53d 8594 533e b44b a23e 25ef ad3d
00000140: fdc8 e33e bebc 7c3e 80a0 8ebe b8a0 183f
00000150: f9df 8f3d d2dd 293f 35a4 d33e c443 f23d
00000160: c4b2 ab3e 9215 1b3f 73b9 a53d 9c79 dcbe
00000170: 3838 aebe a563 c53e 7e94 a0bd 4e59 9b3e
00000180: 7932 15bd c309 ffbc e887 a3be 7e92 663d
00000190: a73b b63d 0c04 1c3d 8f3c 4b3e 3750 e93c
000001a0: 4f5d 08be 7331 cc3d d440 edbc 35d4 45be
000001b0: 96d6 39be 8cfb e53d e278 913d 0c82 09be
000001c0: 3c77 d0bd 8722 0e3d 4ee8 d1bd 607c 98bd
000001d0: f97f 493d b699 39be 8739 d7bc 0155 aebc
000001e0: 8bfb 843d af20 45be 54a6 8b3d 7764 28be
000001f0: 9991 8b3d 9569 5a3e 26c4 58bd f21d 4cbd
00000200: 01bb 193c 3c94 91bd bbd2 67bd 9504 443e
00000210: e5cd 0cbc ced3 75bd 8077 58be 0c14 0cbd
00000220: 4cb7 253e c665 a3bd f90c a1ba 925f b7bd
00000230: 2aef ccbe b7f5 b5bd 3d2e 9cbd 4473 813e
00000240: 8521 713d 0c71 19be 47b0 9fbc 43f7 83bd
00000250: e2bb f03d edd6 393d 3bb8 d8bd b305 cebd
00000260: 3c57 99bd 5716 103e 3ffa 11be 2161 2d3c
00000270: 1ba0 b13e 307e bfbe 32a5 c2bd 1136 a3be
00000280: d703 733d 7fdf 35be 7dbd 733e 8e15 9a3d
00000290: c373 1bbe 8064 263d 89b1 babb 2c9c 7a3e
000002a0: a2cc 933d ac4d 13be cdd4 f3be 584b d33e
000002b0: c6ab 01bd a601 163e 4ac1 9ebe b128 d7bc
000002c0: d8e5 b3be 47ec 163e e7e0 7bbe 103e 24be
000002d0: 1606 29be cf5e 29bf 7b64 633e e029 ab3d
000002e0: ea04 133f 2ad5 183d fd78 b93d 0e6c bbbe
000002f0: f69e 88be 763c 71bd 1caa 753d 811e 633e
00000300: a761 783a 51e7 66be 8a06 29bf 16be 8abe
00000310: 14c4 df3e 1c7d bcbe 90ca c13d 8c43 a93e
00000320: 0c43 d8bc 155e 45be 7432 35bd dbcd 85bd
00000330: 6b34 ac3d 74ef 623e abd8 febd 6475 2fbd
00000340: 1265 74be da5b 403d 933b 883d 3c62 2ebe
00000350: 5042 85be fefa 0bbe 2d2f 9f3d db8b 5b3d
00000360: 155c 783e 120a 64bd 6315 ebbd 81fa b2bd
00000370: 539c b53d 191f 6e3e c757 32bd c970 39be
00000380: 2e1b 0c3e 3753 01bf b816 05be fa90 263b
00000390: 4bda 10be 063d 0c3e 111d ecbd 3a10 e23c
000003a0: 6e29 b0bc 06ae 60be 9198 123e a2a8 8cbe
000003b0: a15a edbe dd99 f2bc e728 04be cb5b 07bf
000003c0: 34a9 533d 1299 be3e 8886 6b3d a4ae 65be
000003d0: fd44 a6bd 19c0 05be f4ac 3cbe c15c 453e
000003e0: 954c b83e 9554 c5bd 3275 953e 5901 8abe
000003f0: 1608 30be 7045 9c3b 7553 cbbd 90c5 523e

l1/b f4 [50]
-0.2883728 -0.33452848 0.077676415 0.35836446 0.2186449 0.110747635 0.26394188 -0.27623618
-0.2547164 -0.24789388 0.29767722 0.17550418 -0.007720595 0.29949445 -0.3239837 0.3074371
0.19355647 -0.3332164 -0.22487076 0.07248692 -0.20949163 0.25964943 0.26795205 -0.21419612
-0.2688855 -0.2829011 0.28623286 0.19037157 0.3256481 0.38641572 0.29678965 -0.36949933
-0.2977121 0.2953518 -0.30428874 -0.0046455995 0.27971795 -0.17044744 -0.27967635 -0.23809582
0.28502673 -0.14168337 0.29097342 0.26401123 -0.36622757 0.18885438 -0.26940143 0.34251493
0.28902528 0.30854192
00000000: 9aa5 93be 5147 abbe d014 9f3d 8c7b b73e
00000010: 73e4 5f3e a8cf e23d 6423 873e d46e 8dbe
00000020: 306a 82be e5d7 7dbe 2669 983e 5eb7 333e
00000030: 0cfd fcbb 5657 993e 31e1 a5be 6568 9d3e
00000040: ab33 463e 579b aabe 8544 66be 0674 943d
00000050: f984 56be c5f0 843e 0331 893e 3a56 5bbe
00000060: 5cab 89be 6ad8 90be 1d8d 923e c4f0 423e
00000070: 59bb a63e 48d8 c53e d0f4 973e 042f bdbe
00000080: b86d 98be 5a38 973e bccb 9bbe 1d3a 98bb
00000090: 3137 8f3e c689 2ebe bd31 8fbe 64cf 73be
000000a0: 06ef 913e 7215 11be 78fa 943e 7b2c 873e
000000b0: 2e82 bbbe 0b63 413e fcee 89be 1e5e af3e
000000c0: 1ffb 933e 35f9 9d3e

l0/W f4 [50, 4]
0.37195086 0.019754536 0.51949704 -0.3766622 -0.19943847 -0.44910157 -0.19079943 0.15653752
-0.031268895 0.35451394 -0.6711471 0.019125003 0.10360455 0.6359931 0.7530236 0.7411678
-0.06980379 0.5940313 0.5623708 0.51716536 -0.18488948 -0.120713 -0.14044066 0.3572161
0.46984974 0.118312836 -0.013730621 -0.2197369 -0.06397194 0.22073984 0.8311583 0.21499819
0.12319727 0.45457202 -0.6312614 0.08068912 0.023117552 0.6373836 0.3659355 0.7604373
1.04333 0.9393515 0.3150644 -0.74741256 0.32067984 0.4152345 -0.2697265 -0.01176911
0.038004793 -0.018618919 -0.19121975 -0.3014044 0.72168 0.57861704 0.13100702 0.076254524
-0.17172866 0.5410295 0.35256138 -0.046255372 0.6246303 0.3906689 -0.042589877 -0.08865712
0.3888416 0.44475463 -0.6217757 -0.099470936 -0.30709946 -0.15235552 -0.5134616 -0.43648767
0.5232783 -0.33861557 -0.44813758 -0.2883727 0.26201206 -0.005115216 0.72453177 -0.4151138
-1.295099 -0.12859182 1.0107538 -0.010122255 0.056117453 -0.04996061 -0.5823904 -0.35026804
-0.114546545 -0.23311767 0.901992 -0.6561583 0.18330278 0.5227118 -0.08539164 -0.119903214
0.3647354 0.7458591 -0.06763413 -0.3931184 -0.13945404 0.3122843 -0.8194883 -0.119746014
-1.294726 0.34988448 0.7501582 0.3114685 0.47132412 -0.2492065 -0.15766037 0.28551418
0.21624516 0.31778076 0.07806382 -0.19159822 0.55471116 0.020376375 0.3540278 0.48265654
-0.35932943 -0.08685837 -0.0028210054 -0.51144403 -0.019487755 0.32197937 1.3564849 0.4731718
0.67603034 0.2991774 -0.36190733 -0.1378773 -0.1101619 0.47831094 -1.2312722 -0.00032634466
-0.13521612 -0.8672539 -0.8383438 -0.830448 0.57373965 -0.12235349 -0.7324544 -0.4194771
0.53928924 -0.44077158 -0.859532 -0.4909789 0.31377557 -0.2392628 0.79829633 0.112971306
-1.2085235 -0.28933138 0.5525431 0.11340961 0.17912902 -0.7984453 -0.9275752 -0.7863767
0.09866634 -0.20489463 -1.1445917 0.9796175 0.3464514 0.1999665 -0.1466663 0.5813752
-0.20935528 0.37012672 0.6683467 0.35715377 0.20195541 0.25449294 -0.017407844 0.5675258
-0.57210094 0.22700068 1.2009752 0.43116787 0.25346515 0.43418893 -0.46261543 -0.052538577
-0.6527744 -0.13553312 -0.13845435 -0.5620234 -0.34066942 -0.033198684 0.7868593 0.15985419
-0.49212927 0.21449369 -0.18757765 -0.32847637 0.020320617 -0.5667595 -0.7718056 -0.3923763
00000000: 5870 be3e 44d4 a13c c2fd 043f ded9 c0be
00000010: 9939 4cbe a4f0 e5be ed60 43be 5f4b 203e
00000020: d013 00bd da82 b53e 4cd0 2bbf 0aac 9c3c
00000030: 9f2e d43d 72d0 223f 28c6 403f 2cbd 3d3f
00000040: 4af5 8ebd 6f12 183f 88f7 0f3f f364 043f
00000050: ab53 3dbe 6138 f7bd adcf 0fbe 07e5 b63e
00000060: 2590 f03e 004e f23d 66f6 60bc b602 61be
00000070: b803 83bd a009 623e cac6 543f 7c28 5c3e
00000080: da4e fc3d aabd e83e 599a 21bf 5640 a53d
00000090: 0561 bd3c 922b 233f e65b bb3e 05ac 423f
000000a0: d68b 853f 5779 703f 1f50 a13e 6e56 3fbf
000000b0: 2630 a43e 9e99 d43e 9819 8abe 3ad3 40bc
000000c0: eaaa 1b3d b486 98bc 1ccf 43be ad51 9abe
000000d0: 05c0 383f 3f20 143f b426 063e 552b 9c3d
000000e0: a3d9 2fbe e980 0a3f ed82 b43e 4676 3dbd
000000f0: c5e7 1f3f c105 c83e b972 2ebd dd91 b5bd
00000100: 3f16 c73e e1b6 e33e b12c 1fbf 6bb7 cbbd
00000110: 243c 9dbe 1603 1cbe 3872 03bf 507b dfbe
00000120: 91f5 053f 055f adbe 4a72 e5be 96a5 93be
00000130: 7226 863e 8b9d a7bb ea7a 393f cc89 d4be
00000140: cec5 a5bf 93ad 03be 6160 813f d1d7 25bc
00000150: 6adb 653d 7fa3 4cbd 8a17 15bf 5556 b3be
00000160: 6197 eabd 66b6 6ebe f3e8 663f fef9 27bf
00000170: b9b3 3b3e 71d0 053f d0e1 aebd d18f f5bd
00000180: 99be ba3e 9ff0 3e3f c383 8abd d146 c9be
00000190: 0acd 0ebe bae3 9f3e fcc9 51bf 663d f5bd
000001a0: 95b9 a5bf 0f24 b33e 5e0a 403f cd78 9f3e
000001b0: 6551 f13e fd2f 7fbe b871 21be ea2e 923e
000001c0: 5f6f 5d3e 29b4 a23e eddf 9f3d 5332 44be
000001d0: 8d01 0e3f 5bec a63c 2243 b53e c21e f73e
000001e0: 07fa b7be cde2 b1bd 9ee0 38bb ffed 02bf
000001f0: c9a4 9fbc 7bda a43e 4ca1 ad3f 9343 f23e
00000200: 5310 2d3f c82d 993e eb4b b9be b52f 0dbe
00000210: 909c e1bd 2ce5 f43e 549a 9dbf 3d19 abb9
00000220: 1876 0abe 5a04 5ebf b39d 56bf 3d98 54bf
00000230: 9ae0 123f 7794 fabd 2282 3bbf b4c5 d6be
00000240: dc0e 0a3f d0ac e1be 4a0a 5cbf 9661 fbbe
00000250: 31a7 a03e 4f01 75be 265d 4c3f 805d e73d
00000260: e6b0 9abf 3e23 94be 7773 0d3f 4c43 e83d
00000270: 996d 373e e966 4cbf 9175 6dbf fc4f 49bf
00000280: 9411 ca3d e6cf 51be fb81 92bf 36c8 7a3f
00000290: 1462 b13e 05c4 4c3e b12f 16be 01d5 143f
000002a0: 3b61 56be 4081 bd3e c518 2b3f dcdc b63e
000002b0: 66cd 4e3e e64c 823e e59a 8ebc 5f49 113f
000002c0: 3575 12bf de72 683e 8eb9 993f 09c2 dc3e
000002d0: 2fc6 813e 034e de3e eedb ecbe b132 57bd
000002e0: 391c 27bf 32c9 0abe fac6 0dbe c4e0 0fbf
000002f0: 396c aebe 58fb 07bd 9c6f 493f d1b0 233e
00000300: 5ef8 fbbe 3ca4 5b3e 5b14 40be 0e2e a8be
00000310: 6c77 a63c 2717 11bf 0d95 45bf 8ce5 c8be

l0/b f4 [50]
-0.56630164 -0.5438737 -0.22132124 0.6870052 -0.21600293 0.6273031 -0.40627494 -0.3075171
-0.11190279 0.6307308 -0.0031832857 -0.46434107 0.33131012 0.3891809 -0.32539764 -0.4374269
-0.44599932 0.5294994 0.4686697 -0.44137418 -0.31162906 0.5729726 0.49092382 0.57498443
-0.25072712 -0.6150935 -0.38145503 -0.44869754 -0.61893284 -0.60014963 -0.6858283 -0.6987917
0.53016454 -0.6660538 0.54634297 -0.76706976 -0.43863124 -0.4759355 -0.6491401 -0.64452994
-0.15699676 0.6741956 -0.14049155 -0.55859333 -0.74006903 -0.52859724 0.5483184 -0.30273128
0.5770615 0.18482181
00000000: 25f9 10bf 4f3b 0bbf 09a2 62be 93df 2f3f
00000010: df2f 5dbe f096 203f 4503 d0be e272 9dbe
00000020: 4a2d e5bd 9377 213f ac9e 50bb 1dbe edbe
00000030: 7ba1 a93e b842 c73e 859a a6be 6bf6 dfbe
00000040: 065a e4be 468d 073f 7af5 ef3e ccfb e1be
00000050: d88d 9fbe 55ae 123f 5e5a fb3e 2e32 133f
00000060: 4e5f 80be c576 1dbf 134e c3be afbb e5be
00000070: 6272 1ebf 68a3 19bf 7292 2fbf 03e4 32bf
00000080: ddb8 073f 8082 2abf 22dd 0b3f af5e 44bf
00000090: 4694 e0be d1ad f3be 0c2e 26bf eaff 24bf
000000a0: c2c3 20be 1598 2c3f 04dd 0fbe f9ff 0ebf
000000b0: 2a75 3dbf 2652 07bf 985e 0c3f 98ff 9abe
000000c0: 4dba 133f ee41 3d3e
